31-蒋明才/Course-2/checkpoint/class.pt (torch, 415082 bytes, 11 tensors)

embedding.weight f4 [27, 128]
0	0x3f51c4e4	0.81941056
1	0x3ea9480c	0.3306278
2	0x3fa4c081	1.2871248
3	0x3eb196ad	0.3468527
4	0xbf6d816b	-0.927756
5	0xbf2776e2	-0.65415776
6	0x3fa82724	1.3136945
7	0x3d714cfd	0.058911312
8	0x3d160922	0.036629803
9	0x3e12097e	0.14261433
10	0x40074e60	2.1141586
11	0x40197428	2.3977146
12	0xbb50ec5b	-0.003187916
13	0xbf14601e	-0.57959163
14	0x3f4ce1bc	0.80031943
15	0x3e4d97b6	0.20077404
16	0x3eaf8b71	0.34286073
17	0x3d38dca4	0.045132294
18	0x3f076145	0.52882797
19	0x3f8ac57b	1.0841516
20	0xbefeed0c	-0.49790227
21	0xbf6bfa41	-0.9217873
22	0xbf7a2585	-0.977135
23	0xbe1bc064	-0.1521011
24	0xbfba56b8	-1.4557714
25	0x3f41d0b5	0.75709087
26	0x3f09e826	0.53869855
27	0xbd0c91fd	-0.034318913
28	0x3e5afaf5	0.21384795
29	0xc00f2ebb	-2.2372272
30	0xbfa2dd0e	-1.272371
31	0x3faccfaf	1.350088
32	0x3f259eac	0.6469524
33	0x3f967a67	1.1756104
34	0x3eddb285	0.43300262
35	0xbfff5dff	-1.995056
36	0x3f7b2b8c	0.9811332
37	0xbef5e7f0	-0.48028517
38	0xbfa24b00	-1.2679138
39	0xbef9ed71	-0.48813966
40	0x3f6204f2	0.88288796
41	0x3fac30e4	1.345242
42	0x3ef7578a	0.48308975
43	0xbf006692	-0.5015651
44	0xbebeebf1	-0.37289384
45	0x3ea667c8	0.32501054
46	0xbe9b27f6	-0.30303925
47	0x3fd77620	1.6832924
48	0x3fc54e75	1.5414568
49	0x3fbdb245	1.4820029
50	0x3e95d07d	0.29260626
51	0x3f504404	0.81353784
52	0x3f4379e0	0.7635784
53	0xbd8a919f	-0.06766056
54	0x3e085193	0.13312368
55	0x3fb8cf74	1.443831
56	0x3ed58c0c	0.4170841
57	0x400b5263	2.1769035
58	0xc007fd54	-2.124837
59	0xbeef1198	-0.4669311
60	0x3ffbae9b	1.966266
61	0xbe800f58	-0.25011706
62	0x3e36bda2	0.17845777
63	0x3f936aee	1.1517007
64	0x3e8ee952	0.27912384
65	0x3f6e0b00	0.92985535
66	0xbf0d3700	-0.5516205
67	0xbf50ea56	-0.8160757
68	0x3f345177	0.70436805
69	0xbf0ffef3	-0.56248397
70	0xbe18a9a1	-0.14908458
71	0x3ef3cc55	0.4761683
72	0x3d9b6669	0.075878926
73	0xbf8e26f9	-1.1105644
74	0x3fb6ab48	1.4271021
75	0xbea9708c	-0.3309368
76	0xbfb9903f	-1.4497145
77	0x3f8d0c50	1.1019382
78	0xc00f78cf	-2.2417486
79	0xbedd241e	-0.43191618
80	0xbfcf4305	-1.6192328
81	0x3f8752db	1.057216
82	0x3ea2f886	0.31830233
83	0x3f7996de	0.9749583
84	0xbe9799c0	-0.2960949
85	0xbf10e701	-0.56602484
86	0x3ee99978	0.456249
87	0xbf1df85e	-0.61707103
88	0xbf1e6066	-0.6186584
89	0x3f967b85	1.1756445
90	0xbf985b93	-1.1902946
91	0x3f8c2ff2	1.0952132
92	0xbfd4e5ba	-1.6632607
93	0x3f7f326f	0.9968633
94	0x3f77cdd8	0.9679847
95	0xbfdf8b29	-1.7464343
96	0xbdd646cd	-0.10462723
97	0xbdbf4e6d	-0.093411304
98	0xbf0f3223	-0.5593588
99	0x3ebaa233	0.36451873
100	0x3f0401d3	0.51565284
101	0xbfdf2bfb	-1.7435297
102	0xbd9fbd2f	-0.07799756
103	0x3f770f69	0.9650789
104	0xc0006fe9	-2.0068305
105	0x3f935b45	1.1512228
106	0xbfca3a27	-1.5798997
107	0xc003d6f6	-2.0599952
108	0x3f5062ff	0.81401056
109	0x3faa8540	1.3321915
110	0x3fa5bc80	1.2948151
111	0xbe8af72d	-0.27141705
112	0xbdc4aed5	-0.09603659
113	0xbfb1df95	-1.3896357
114	0x3fc94643	1.5724567
115	0xbf50ad65	-0.8151458
116	0xbfac98ae	-1.3484094
117	0xbf93e949	-1.1555568
118	0xbfa31f7c	-1.2743983
119	0x3f4ec86c	0.8077457
120	0x3f20bd4a	0.6278883
121	0xbff42931	-1.9075071
122	0xbf12be20	-0.5732136
123	0x3c2e81a7	0.010651029
124	0x3fc3f8ce	1.5310304
125	0x3f8ae2f4	1.0850511
126	0xbe9f6a45	-0.31135765
127	0x3f75c4ff	0.9600372
128	0x3d8164ca	0.06318052
129	0xbe030fee	-0.12799045
130	0xbecd647b	-0.40115723
131	0xbefe33e5	-0.49648967
132	0xbf0de986	-0.55434453
133	0xbe7da8ed	-0.24771471
134	0xbf840b7f	-1.0316008
135	0x3f268dd0	0.6506014
136	0xbeec0eeb	-0.46105132
137	0xbf97f769	-1.1872379
138	0x3fe7d062	1.8110468
139	0xbe1c9834	-0.15292436
140	0xbe2e5891	-0.17025973
141	0x3efeaff7	0.49743626
142	0x3fa4881c	1.2854037
143	0xbfa1cbe0	-1.2640343
144	0xbeea7259	-0.45790365
145	0xbe4bc447	-0.19899093
146	0xbeda12a8	-0.4259236
147	0x401c0649	2.4378836
148	0xbeb0c028	-0.34521604
149	0xbe905f1f	-0.28197572
150	0x3fda20ad	1.7041222
151	0x3eb1de40	0.34739876
152	0x3f082a8e	0.53189933
153	0xbf55fa6c	-0.8358524
154	0x3db5f723	0.08885028
155	0xbf1e6a76	-0.61881196
156	0xbfc1c8d8	-1.5139418
157	0xbf4a6fe6	-0.79076993
158	0xbdce5269	-0.10074312
159	0xbf99bae8	-1.2010164
160	0x3f92fbf7	1.1483144
161	0xbfb79787	-1.4343117
162	0x3f807658	1.0036116
163	0xbe2fa6eb	-0.17153518
164	0x3e733f22	0.23754552
165	0xbd6a805e	-0.057251327
166	0xbf4ca63a	-0.7994114
167	0x3fb47a53	1.409983
168	0x3e5550b5	0.20831569
169	0x3f9b743f	1.214485
170	0x3f0937a3	0.5360052
171	0xbf0b543a	-0.54425395
172	0xbf69bbca	-0.9130217
173	0x3eeef6a7	0.46672556
174	0x3feec11e	1.8652685
175	0x3fd6ffc1	1.67968
176	0xbf6aebde	-0.91766155
177	0xbeb05cc6	-0.3444578
178	0x3fda95b0	1.7076931
179	0xbf853b05	-1.0408636
180	0xbed8adbf	-0.42320058
181	0xbf13443d	-0.57526
182	0x3e8e0a08	0.27742028
183	0x3f7a9b68	0.9789338
184	0x3f34a9dc	0.70571685
185	0x3ed6a96b	0.4192613
186	0x3eda8573	0.4267994
187	0xbf5a921b	-0.8537919
188	0xbf2383b9	-0.6387287
189	0x3fc8a6c2	1.567589
190	0x3f9bb26d	1.2163826
191	0x3e82f824	0.2557994
192	0xbddeeecb	-0.1088539
193	0x3fa0c6b2	1.2560637
194	0x3f0cd9e8	0.5502
195	0x3e5ff3cb	0.21870343
196	0xc01d2801	-2.4555666
197	0xbf6261f1	-0.88430697
198	0xbe85267f	-0.26005933
199	0xbe3f268e	-0.18667051
200	0xbf36125d	-0.7112177
201	0xbf199c10	-0.6000376
202	0xbda62584	-0.08112624
203	0xbf4b13d6	-0.7932714
204	0xbfcbfde4	-1.5936856
205	0xbf9d5f4f	-1.2294711
206	0x3f37bf99	0.7177673
207	0xbf85e67f	-1.0460967
208	0x40296b99	2.6471922
209	0xbd02f791	-0.03197438
210	0x3f34a543	0.7056467
211	0xbf24cebc	-0.6437795
212	0x3fcd5285	1.6040808
213	0xbed07dee	-0.40721077
214	0xbfcba1e4	-1.590878
215	0xbf2b94f8	-0.67024183
216	0x3a98ad1e	0.0011648273
217	0x3eba924e	0.36439747
218	0x3e56cde7	0.20976983
219	0xbe65e42c	-0.22450322
220	0x3f4ff1e6	0.8122848
221	0xbe569e52	-0.20958832
222	0x3fb5d92b	1.42069
223	0x3fe46590	1.7843494
224	0x3efd4e67	0.4947388
225	0x3f23abe2	0.6393415
226	0xbf41950b	-0.75618047
227	0x3d18d533	0.037312698
228	0xbf0484b2	-0.51764977
229	0xbe99f193	-0.3006712
230	0xbf60ee31	-0.8786345
231	0xbed4ad4d	-0.41538468
232	0x3f877ea0	1.0585518
233	0x3f8e5a10	1.1121235
234	0x3fbaf342	1.4605486
235	0x3e854f30	0.26036978
236	0xbe8ccea9	-0.2750142
237	0x3fb2aa3e	1.3958204
238	0xbf092932	-0.53578484
239	0x3ec58e61	0.3858519
240	0xbfa863fc	-1.3155513
241	0xbfad4cba	-1.353904
242	0xbe7806c3	-0.2422133
243	0x3bc0eb5c	0.005887432
244	0x3e1af09e	0.1513085
245	0x3e3f1fab	0.18664424
246	0x3f8fde39	1.1239692
247	0xbfe93044	-1.8217854
248	0xbf0ed45d	-0.5579279
249	0x3f414dbf	0.75509256
250	0xbf86cd08	-1.053132
251	0xbface402	-1.3507082
252	0xbea9b98f	-0.33149382
253	0x3f8ccf24	1.1000714
254	0xbe4ababf	-0.197978
255	0x3f737d21	0.95112807

lstm.weight_ih_l0 f4 [256, 128]
0	0x3e23855b	0.1596884
1	0xbd068c11	-0.03284842
2	0xbab8ff9a	-0.0014114261
3	0xbdbb57b2	-0.09147586
4	0xbc95075f	-0.018191991
5	0x3ca5f306	0.020257484
6	0xbd071bd0	-0.03298551
7	0xbcfbb267	-0.030724717
8	0x3d235eac	0.039885208
9	0x3de36efb	0.11105152
10	0x3c0b4d16	0.008502265
11	0xbd5e9708	-0.054343253
12	0x3e0d1cd0	0.13780522
13	0x3d15391c	0.036431417
14	0x3d97f25f	0.074192755
15	0xbd9a9082	-0.07547094
16	0xbcb9672e	-0.022632208
17	0x3ad3d66a	0.0016161923
18	0x3dda3c1d	0.10655997
19	0x3e057b94	0.13035423
20	0xbd48c7e8	-0.04901877
21	0x3cb9d0cb	0.022682568
22	0x3a874032	0.0010318814
23	0xbd169eeb	-0.03677265
24	0x3d0279cf	0.031854447
25	0x3e03f840	0.12887669
26	0xbdd13eb4	-0.10217038
27	0x3d991941	0.0747552
28	0xbd1de040	-0.03854394
29	0xbd35a1d5	-0.04434379
30	0xbc111c7f	-0.008856892
31	0x3d279480	0.040913105
32	0xbd803d4e	-0.06261693
33	0x3d960d96	0.0732681
34	0xbda89e26	-0.082332894
35	0xbd12fa70	-0.035883367
36	0x3dc2f2e0	0.09518981
37	0x3d5c6265	0.053804774
38	0xbdee32df	-0.11630797
39	0xbd569027	-0.05238357
40	0xbcbfa9ee	-0.023396458
41	0x3dc43b52	0.09581627
42	0x3d8af200	0.06784439
43	0xbbc71733	-0.0060757636
44	0x3ccec36b	0.025239667
45	0x3df0ee56	0.11764209
46	0x3dd98a22	0.1062205
47	0x3e23728b	0.15961663
48	0x3dd30a00	0.10304642
49	0xbcc78a02	-0.0243578
50	0xbd28d6de	-0.04122054
51	0x3e255f34	0.16149598
52	0x3dda0ad2	0.10646595
53	0x3d48767f	0.04894113
54	0xbe0c7e9c	-0.13720173
55	0x3d9c8c38	0.07643932
56	0x3ce4e3cc	0.027940653
57	0x3de319df	0.11088919
58	0xbe149a5b	-0.14512007
59	0x3d8ef848	0.0698095
60	0xbd37c13f	-0.04486203
61	0xbe06f50c	-0.13179415
62	0x3d83c0f3	0.064332865
63	0x3ca3fe2d	0.020018661
64	0x3e01e1a5	0.12683733
65	0x3de34c22	0.110985056
66	0x3d8320da	0.0640275
67	0xbdadb405	-0.084816016
68	0x3dae7a74	0.0851945
69	0x3d0193ca	0.031635083
70	0x3ce94f32	0.028480146
71	0x3b8e94e8	0.004351247
72	0x3c181d36	0.009284308
73	0x3d1a2ced	0.0376405
74	0x3c7edd0c	0.015555631
75	0xbdc040cc	-0.09387359
76	0xbc9c859a	-0.019106675
77	0x3d771a9a	0.060328104
78	0xbd0279df	-0.031854507
79	0xbd757d20	-0.05993378
80	0xbd393a9a	-0.045221902
81	0x3e1b74a0	0.15181208
82	0x3e0644a7	0.13112126
83	0xbdb091ed	-0.08621583
84	0xbe07b58c	-0.13252848
85	0xbe173c1d	-0.14769025
86	0xbc94cb7e	-0.018163439
87	0x3ca13f1a	0.01968341
88	0xbd0588a9	-0.032601032
89	0xbcfe55af	-0.031046716
90	0xbd90a8d3	-0.07063451
91	0xbcd8e3aa	-0.026475746
92	0xbccd37d2	-0.025051031
93	0x3dc9f581	0.09861279
94	0xbdf0cf10	-0.11758244
95	0x3d085958	0.03328833
96	0xbd6448b1	-0.055733386
97	0x3d97e27d	0.07416246
98	0xbe238b32	-0.15971068
99	0xbccf6067	-0.025314523
100	0x3d9f96df	0.07792448
101	0xbe3dba9d	-0.18528219
102	0xbd818869	-0.06324846
103	0xbd708ba4	-0.05872692
104	0xbc625708	-0.013814695
105	0xbd384997	-0.044992056
106	0xbdbdf725	-0.09275655
107	0xbc1d1489	-0.0095874155
108	0x3ce0ccef	0.02744147
109	0xbd507e54	-0.050901726
110	0xbd1edec9	-0.038786683
111	0xbc394aa0	-0.011309296
112	0xbd96d264	-0.073643476
113	0x3c7b457e	0.015336392
114	0x3bc630c6	0.0060482947
115	0xbda0717a	-0.07834144
116	0xbe095bd0	-0.1341393
117	0x3da558f6	0.080736086
118	0xbda7c978	-0.08192724
119	0x3db80562	0.08985402
120	0xbd71136a	-0.058856405
121	0xbd5876ac	-0.05284755
122	0xbd66e8c5	-0.05637433
123	0x3db411c8	0.08792454
124	0x3d553f8c	0.052062556
125	0x3cee12bb	0.029061666
126	0xbe074aea	-0.13212171
127	0x3e25ae42	0.16179755
128	0x3e243702	0.16036609
129	0xbc6cfe6d	-0.014464957
130	0xbd172059	-0.036896084
131	0x3cc8cefb	0.024512758
132	0xbe0dc246	-0.1384364
133	0x3bb4440c	0.005501276
134	0xbd204b59	-0.039134357
135	0x3dd8f9f6	0.10594551
136	0x3cddc276	0.027070265
137	0x3cfefbad	0.031125868
138	0x3de5e4da	0.112252906
139	0x3e196b56	0.14982352
140	0x3dbd5c9f	0.09246182
141	0x3d71bec7	0.05901983
142	0xbdae6239	-0.08514828
143	0x3c35ac11	0.011088387
144	0x3dcaf511	0.09910024
145	0xbdbb85e4	-0.09156397
146	0xba3dd1ba	-0.00072410295
147	0x3dbe0ec2	0.092801586
148	0x3db479ba	0.0881228
149	0x3cde245a	0.027116943
150	0x3d467a5d	0.04845654
151	0x3dafccd2	0.08583988
152	0xbd1b7d87	-0.03796151
153	0x3d6278e4	0.05529107
154	0x3d1a37da	0.03765092
155	0xbdcfb6eb	-0.10142311
156	0x3ddf903d	0.10916183
157	0xbe282446	-0.16420087
158	0x3cc07c8c	0.023496889
159	0xbd9107af	-0.07081544
160	0x3dcbb770	0.09947097
161	0xbd80ba4c	-0.06285533
162	0x3d2a4cef	0.041577276
163	0x3d02dea9	0.031950627
164	0xbd894f1a	-0.067045406
165	0xbd3db287	-0.046312835
166	0x3da34991	0.07973016
167	0x3d69cb4d	0.05707865
168	0x3d9a97c5	0.07548479
169	0x3dd6b72f	0.10484158
170	0x3d0bc3f2	0.034122415
171	0xbda01cc3	-0.07817986
172	0x3db962f5	0.09052078
173	0xbcf081a7	-0.029358698
174	0x3d65560a	0.055990256
175	0x3ccf06e7	0.025271846
176	0xbd43eae5	-0.047831435
177	0x3c445a1c	0.011984374
178	0x3dc4868f	0.095959775
179	0x3de5d443	0.11222126
180	0xbd837fbf	-0.0642085
181	0x3d6e59e2	0.058191188
182	0x3d9dae59	0.0769927
183	0xbaa3b049	-0.001248845
184	0x3e1a00a9	0.15039314
185	0x3d89e156	0.067324325
186	0x3cabfbd0	0.020994097
187	0xbd5fe0e7	-0.054657843
188	0x3c986378	0.018602118
189	0xbd54fa8f	-0.051996764
190	0xbd661c51	-0.05617935
191	0x3e0fa449	0.14027514
192	0x3dac93aa	0.08426602
193	0xbb1dc9ff	-0.0024076698
194	0xbd04d95c	-0.032433853
195	0xbc2b3a7b	-0.010450955
196	0xbd0cb7e4	-0.03435506
197	0xbd443bca	-0.04790858
198	0x3dac0775	0.0839986
199	0x3da2692b	0.079302154
200	0x3ba4d5fa	0.005030391
201	0xbce87704	-0.028377064
202	0x3deab141	0.1145959
203	0x3dd135e3	0.10215356
204	0xbdb1626c	-0.086613506
205	0x3c4b2599	0.012399101
206	0xbdbc2da2	-0.09188391
207	0x3d1135ed	0.03545182
208	0xbd61dab6	-0.05514022
209	0x3d1a4c7e	0.037670605
210	0x3ceffed1	0.02929631
211	0x3c17eb4f	0.0092724105
212	0xbc99dae6	-0.018781137
213	0xbdc30313	-0.09522071
214	0xbc9c6a72	-0.019093726
215	0x3da2d14a	0.07950075
216	0x3d348b66	0.044078253
217	0x3d4e7be1	0.05041111
218	0xbc14b9c0	-0.009077489
219	0xbdc20328	-0.09473258
220	0xbdb22dc6	-0.08700137
221	0xbd724b4c	-0.05915384
222	0x3dd2bbcd	0.102897264
223	0xbe065839	-0.13119592
224	0xbc378b9a	-0.011202717
225	0xbadc6cd5	-0.0016817102
226	0x3d346c30	0.04404849
227	0xbd735ad1	-0.05941278
228	0xbd0d1e1d	-0.034452546
229	0xbde155d6	-0.110027
230	0x3d0469b0	0.032327354
231	0x3dc8dce9	0.0980776
232	0x3d6353ab	0.055499714
233	0x3c96a435	0.018388847
234	0x3cbf806f	0.023376672
235	0xbd9b916f	-0.07596099
236	0x3cc8c902	0.02450991
237	0x3e0894d2	0.1333802
238	0xbcf9cfb4	-0.030494548
239	0xbdf47bde	-0.11937688
240	0x3dab6bbd	0.08370159
241	0xbb404d02	-0.0029342775
242	0x3d18d194	0.037309244
243	0x3dd02979	0.1016416
244	0x3c920da2	0.017828766
245	0xbd20244b	-0.03909711
246	0xbd4b5e91	-0.049650732
247	0x3de60b4e	0.11232625
248	0x3dd2c3fc	0.10291287
249	0xbc8d4781	-0.01724601
250	0xbd89b950	-0.06724799
251	0x3dd81b89	0.10552127
252	0x3e1917d5	0.14950497
253	0x3d5d9c07	0.054103877
254	0xbd199b38	-0.037501544
255	0x3dd38729	0.10328514

lstm.weight_hh_l0 f4 [256, 64]
0	0xbdaf46a1	-0.08558393
1	0xbd5b81c3	-0.053590547
2	0xbb98184c	-0.0046415683
3	0x3ded94fb	0.116006814
4	0x3de88a91	0.113545544
5	0xbcf12578	-0.029436812
6	0xbd18f13a	-0.037339427
7	0x3d9fbf71	0.078001864
8	0xbe10993d	-0.14120956
9	0xbe0fb6b5	-0.14034541
10	0x3df745bf	0.1207385
11	0xbe140c28	-0.14457762
12	0x3bda61cc	0.0066644903
13	0x3c50de59	0.012748324
14	0xbddff85d	-0.109360434
15	0x3d3b67a6	0.045753144
16	0x3dbabe39	0.09118313
17	0xbe134404	-0.14381415
18	0x3df3f346	0.11911635
19	0x3d8fadb2	0.070155516
20	0x3d6e032e	0.0581085
21	0xbd8cefb1	-0.06881655
22	0xbdf9769a	-0.121808246
23	0x3d254d5d	0.040356982
24	0x3d10327d	0.0352044
25	0xbd31f014	-0.043441847
26	0x3c337567	0.010953284
27	0x3d1a19e8	0.037622362
28	0x3dbfbdca	0.09362371
29	0xbdbf603a	-0.09344526
30	0xbd247402	-0.040149696
31	0xbc132efb	-0.008983369
32	0x3de170ea	0.11007865
33	0xbd48cf14	-0.04902561
34	0xbe0f27cb	-0.13980024
35	0x3d838d9a	0.06423493
36	0x3d2a4b5f	0.041575786
37	0xbe1e20c5	-0.15442188
38	0xbe17364a	-0.14766803
39	0xbe0c1240	-0.13678837
40	0x3d3b2427	0.045688774
41	0x3d882c0d	0.06649027
42	0xbdb269da	-0.08711596
43	0xbd312020	-0.043243527
44	0xbe04fe95	-0.1298774
45	0x3df28110	0.11841023
46	0xbd38db4a	-0.045131005
47	0xbda0391d	-0.078233935
48	0xbc97967c	-0.018504374
49	0x3c51bdd0	0.0128016025
50	0xbb1dc53e	-0.0024073864
51	0xbd364e66	-0.04450836
52	0x3d0c3dc9	0.03423861
53	0xbdfb3fe0	-0.122680426
54	0x3db7d7a4	0.08976677
55	0x3d8f3090	0.069916844
56	0xbdd727e5	-0.10505656
57	0xbdf5f437	-0.12009471
58	0xbd5f90e0	-0.054581523
59	0xbda65516	-0.081216976
60	0x3e17a5b3	0.14809303
61	0xbe29b7f4	-0.16574079
62	0x3d199e2e	0.037504368
63	0x3dd37094	0.10324207
64	0x3dc35a67	0.09538727
65	0x3dfc6477	0.1232385
66	0x3b6c7922	0.0036082943
67	0x3cdd432c	0.02700957
68	0x3c06db26	0.00823096
69	0x3dcdbe84	0.100461036
70	0xbe1590ea	-0.14606062
71	0xbd11db75	-0.03560968
72	0xbd831d83	-0.06402113
73	0xbdfa6b3d	-0.12227485
74	0x3c9d72be	0.019219752
75	0xbcc85dde	-0.024458822
76	0x3dfedfda	0.1244504
77	0x3d354117	0.044251528
78	0x3d3cb989	0.046075378
79	0x3de08d0e	0.10964404
80	0x3d29de43	0.04147173
81	0x3d284612	0.04108245
82	0xbd683e27	-0.056699898
83	0xbe04738a	-0.129347
84	0x3c33c9b7	0.010973386
85	0xbc1d7a2b	-0.009611647
86	0xbaeb819b	-0.0017967703
87	0xbdd208c7	-0.102555804
88	0xbd689ca6	-0.056790017
89	0x3dc6c810	0.09706128
90	0xbdaa0d7a	-0.08303352
91	0x3c3acc46	0.011401242
92	0x3e2066cd	0.15664215
93	0xbdaf1caa	-0.08550389
94	0x3de26774	0.11054888
95	0xbda4ea7f	-0.08052539
96	0x3dd29dc5	0.102839984
97	0xbc167f3e	-0.00918561
98	0x3dbd4a5c	0.092426986
99	0x3d1120cb	0.035431664
100	0xbd950858	-0.07276982
101	0xbd4eb614	-0.050466612
102	0xbd4dd1df	-0.050248977
103	0x3dce3984	0.10069564
104	0x3da7181f	0.081588976
105	0xb8f4afcc	-0.000116675714
106	0x3d91d6fc	0.07121083
107	0xbcffce78	-0.031226382
108	0xbd3dda1a	-0.046350576
109	0xbcf85b03	-0.030316835
110	0xbd528ff3	-0.051406812
111	0x3d5c4f22	0.053786404
112	0x3c1f2c29	0.009715118
113	0x3e0f8172	0.14014223
114	0x3da6213b	0.08111807
115	0x3d813611	0.063091405
116	0x3d88edd6	0.066859886
117	0xbd068d8d	-0.032849837
118	0x3d6baf23	0.05754007
119	0xbdd6446c	-0.10462269
120	0x3d40b97b	0.047051888
121	0xbd294f75	-0.04133554
122	0x3e013f7b	0.12621872
123	0xbce31443	-0.027719622
124	0xbcd24c8e	-0.02567127
125	0x3c5eac4f	0.013590886
126	0x3ddb88be	0.10719441
127	0xbd1ba565	-0.03799953
128	0x3e0f0e98	0.13970411
129	0x3d763e60	0.06011808
130	0xbd9851f2	-0.07437505
131	0x3c90e0ce	0.01768532
132	0x3be6b2f2	0.007040375
133	0x3de6b3aa	0.11264737
134	0xbd1bc67d	-0.03803109
135	0xbc5ee054	-0.013603289
136	0x3dcf90b0	0.10135019
137	0xbcf3b1f1	-0.029747935
138	0xbd15e53e	-0.036595576
139	0xbdf8fff7	-0.121581964
140	0xbd972272	-0.07379617
141	0xbdb07111	-0.08615316
142	0xbdbaf134	-0.09128037
143	0xbbe50bb2	-0.0069899196
144	0xbde1713d	-0.110079266
145	0xbd7e2136	-0.06204339
146	0xbd1f9da5	-0.0389687
147	0xbd8d2db2	-0.06893481
148	0xbcc5547d	-0.024088139
149	0x3db8600a	0.09002693
150	0xbdf4e6eb	-0.119581066
151	0xbd17c43f	-0.03705239
152	0x3cea6c2c	0.028616033
153	0xbdb6d4b2	-0.08927287
154	0xbd9e17eb	-0.07719406
155	0x3b209217	0.0024501139
156	0x3ddf4300	0.10901451
157	0xbbded1db	-0.006799919
158	0xbcd52866	-0.02602024
159	0x3cd78f77	0.026313527
160	0x3da5f014	0.08102432
161	0xbd0bd730	-0.034140766
162	0xbd63d0bc	-0.055618986
163	0x3cd1bbef	0.025602309
164	0xbb24b75a	-0.00251337
165	0x3c132395	0.008980651
166	0xbdf3ff83	-0.11913969
167	0xbddbd640	-0.10734224
168	0x3c64cd83	0.013965013
169	0x3d031206	0.03199961
170	0xbd8d9e5d	-0.06914971
171	0x3dbe38af	0.09288155
172	0x3dacf327	0.08444815
173	0x3dbc6ab9	0.09200043
174	0x3db9fdf3	0.0908164
175	0x3bbe26ff	0.0058029885
176	0xbda26a00	-0.07930374
177	0xbcf252cf	-0.029580502
178	0xbcebe737	-0.028796775
179	0xbd9fed3a	-0.07808919
180	0x3d11e46c	0.03561823
181	0xbdbfe916	-0.093706295
182	0xbd86539c	-0.06558916
183	0xbd1fa0e6	-0.038971804
184	0x3dccd3b2	0.10001315
185	0xbdd28c11	-0.10280622
186	0x39aea027	0.0003330719
187	0xbd2c883c	-0.04212211
188	0x3bd5d0db	0.0065251417
189	0x3d91c682	0.071179405
190	0x3e087073	0.13324146
191	0xbd9111e2	-0.07083489
192	0x3e1af946	0.15134153
193	0x3df1c11c	0.11804411
194	0x3e25e32f	0.16199945
195	0xbc32f999	-0.0109237665
196	0xbc1d67ff	-0.009607314
197	0xbd1792ab	-0.037005108
198	0x3d6bd1d1	0.057573143
199	0xbde83b4c	-0.11339435
200	0x3ca7c0dd	0.020477707
201	0xbde6d336	-0.11270754
202	0xbc3f42e2	-0.011673661
203	0xbd6b9b0d	-0.057520915
204	0xbd99786b	-0.07493671
205	0xbd9c395a	-0.076281264
206	0x3d8ab1b5	0.06772176
207	0x3d8a38bb	0.06749102
208	0xbcf1e546	-0.029528271
209	0x3c9b9ed1	0.018996628
210	0x3d90ed29	0.07076485
211	0xbcdce653	-0.026965296
212	0x3d413b9f	0.047176
213	0xbd9df4b2	-0.077126876
214	0xbd9229f0	-0.07136905
215	0x3dd6a903	0.10481455
216	0xbd0efde3	-0.034910094
217	0x3d916d27	0.07100897
218	0x3d2f538a	0.04280428
219	0xbcc7cabc	-0.024388663
220	0x3df346c4	0.11878732
221	0x3b37de58	0.0028056111
222	0xbc8f9b32	-0.017530058
223	0x3dd84cf9	0.10561556
224	0x3e1520aa	0.14563242
225	0x3d5b422a	0.053529896
226	0x3aa59512	0.0012632927
227	0xbcef4528	-0.029207781
228	0xbdd67836	-0.10472147
229	0xbabf8a9f	-0.0014613456
230	0x3cef2445	0.0291921
231	0x3db54d1a	0.088525966
232	0x3e029dc2	0.12755492
233	0x3d631fd5	0.05545028
234	0xbe088843	-0.1333323
235	0x3dbb0dba	0.091334775
236	0xbd9c78fc	-0.076402634
237	0x384f59f0	4.9436407e-05
238	0x3b934281	0.004494012
239	0xbdf6f647	-0.120586924
240	0xbd061040	-0.03273034
241	0xbd99b5d6	-0.075053856
242	0x3cc38d6d	0.023871148
243	0xbd5a73aa	-0.053332962
244	0x3d6f0f51	0.058364216
245	0x3bf1fccb	0.0073848716
246	0x3d656fd7	0.056014862
247	0xbd348ab7	-0.0440776
248	0xbd6d6928	-0.057961613
249	0x3c0c41b7	0.0085605895
250	0xbd500df5	-0.05079456
251	0x3dbe70a5	0.09298829
252	0x3d1a24f4	0.037632897
253	0x3dd46805	0.10371403
254	0xbdd1f30a	-0.10251434
255	0x3e11a94c	0.14224738

lstm.bias_ih_l0 f4 [256]
0	0x3dafb12b	0.08578714
1	0x3e2610be	0.16217324
2	0xbbd987ae	-0.0066384887
3	0x3dc33f64	0.09533575
4	0x3cf4484a	0.029819626
5	0xbcfde029	-0.030990677
6	0xbd3db871	-0.046318475
7	0xbd23eb33	-0.040019225
8	0xbc51e170	-0.012810096
9	0xbc408772	-0.011751043
10	0x3d72c830	0.059272945
11	0x3d8af3c7	0.06784778
12	0x3e1882a7	0.1489359
13	0x3da4e7c0	0.08052015
14	0x3e041a7f	0.12900732
15	0x3cdb2241	0.026749732
16	0xbd5b0fa9	-0.05348173
17	0xbd92f2b7	-0.071752004
18	0xbbe2b5a2	-0.006918625
19	0x3d9bd7ae	0.07609497
20	0x3d97ca07	0.074115805
21	0x3e01496c	0.12625664
22	0x3cdcf989	0.026974456
23	0xbd5aeec9	-0.05345038
24	0x3dd8da0e	0.10588466
25	0xbc85b729	-0.01632269
26	0xbd50de71	-0.050993387
27	0x3c88ff2d	0.01672324
28	0xbd0aaad5	-0.033854324
29	0x3df3676b	0.1188496
30	0x3d61f14d	0.055161763
31	0xbda3158d	-0.07963095
32	0x3e1b11c4	0.15143496
33	0x3d428691	0.047491614
34	0xbd7d3dc9	-0.0618265
35	0x3d0cfa69	0.034418497
36	0xbc6402d3	-0.013916689
37	0xbd656240	-0.0560019
38	0xbd4a93aa	-0.04945723
39	0x3cae6f2a	0.021293242
40	0x3defcff8	0.11709589
41	0xbd042f01	-0.03227139
42	0xbd65b4b9	-0.056080554
43	0x3dabe53b	0.083933316
44	0x3e119153	0.14215593
45	0x3d3dcc21	0.04633725
46	0xbd495dba	-0.04916165
47	0x3d7f20a3	0.062286984
48	0x3deba35f	0.1150577
49	0x3caa0633	0.02075491
50	0x3dad39cb	0.08458289
51	0xbd4aaefa	-0.049483277
52	0xbdc69986	-0.09697251
53	0xbd09d84c	-0.033653542
54	0x3d860bb1	0.06545199
55	0x3db9fe50	0.090817094
56	0x3e223401	0.1584015
57	0x3ce50793	0.027957713
58	0x3dad5e47	0.084652476
59	0x3d660030	0.056152523
60	0x3e35beb3	0.17748527
61	0x3dce3a75	0.100697435
62	0xbdb778f7	-0.08958619
63	0xbd550d9c	-0.052014932
64	0x3e04be1c	0.12963146
65	0x3ddca1e7	0.10773068
66	0x3dcf72cc	0.10129318
67	0xbc68a169	-0.014198639
68	0x3d423157	0.047410335
69	0xbd523057	-0.05131563
70	0xbd1670ea	-0.036728777
71	0x3e277645	0.1635371
72	0x3e3f6274	0.186899
73	0x3e201a7d	0.15635104
74	0xbb01f8a5	-0.0019832042
75	0xbd998a5c	-0.07497093
76	0x3e111cd9	0.14171161
77	0x3c05cfdb	0.008167232
78	0xbdaceac5	-0.08443216
79	0xbdb7ca1b	-0.089740954
80	0xbafc2abb	-0.0019238809
81	0x3e39606f	0.18103193
82	0xbd3dacae	-0.04630726
83	0xbbe6f0e0	-0.0070477575
84	0x3d64aa3e	0.055826418
85	0x3c9014eb	0.0175881
86	0xbd952d87	-0.07284074
87	0x3df6f04d	0.120575525
88	0x3cf11507	0.029428972
89	0xbc3f1cdf	-0.011664598
90	0x3d84b4c4	0.06479791
91	0x3dc526a0	0.09626508
92	0x3d3a0e1c	0.045423612
93	0xbce07d2d	-0.027403438
94	0x3e453f92	0.19262531
95	0xbd112a3c	-0.03544067
96	0x3e234910	0.1594584
97	0xbd7a0629	-0.06104103
98	0x3e29dda2	0.16588452
99	0x3df2e934	0.11860886
100	0xbd3ea3de	-0.046542995
101	0x3dad6c2d	0.084678985
102	0x3d5a00e5	0.05322351
103	0xbdb011f3	-0.085971735
104	0x3e1184ef	0.14210866
105	0xbd3be739	-0.045874808
106	0xbd0621ad	-0.03274696
107	0x3e2f5db1	0.17125584
108	0xbcdc1da0	-0.026869595
109	0x3ddaa2fa	0.106756166
110	0xbd2b3bdd	-0.041805137
111	0x3dfc2c52	0.12313141
112	0x3d87b757	0.06626766
113	0xbdb8d790	-0.0902549
114	0xbd82363f	-0.06358003
115	0x3d18dfe0	0.03732288
116	0x3c96faee	0.0184302
117	0x3b4e207a	0.0031452463
118	0x3e251f19	0.16125144
119	0x3d223049	0.03959683
120	0xbd26c92a	-0.04071919
121	0x3db1ac80	0.0867548
122	0x3e2f9d15	0.17149766
123	0x3dba84dc	0.09107372
124	0xbd33a6e2	-0.043860324
125	0x3dbc9e34	0.09209862
126	0xbd9bf40e	-0.07614909
127	0xbd5dd100	-0.054154396
128	0xbd5bc425	-0.053653855
129	0xbc2c085a	-0.010500038
130	0xbce0a4e7	-0.027422382
131	0x3d8002cc	0.062505335
132	0x3daf2bce	0.08553277
133	0xbe02172d	-0.12704153
134	0x3dcf5763	0.101240896
135	0x3d0238fb	0.031792622
136	0x3c89ef84	0.016837843
137	0xbdbc6431	-0.091987975
138	0x3da096db	0.078412734
139	0xbbbbc5f2	-0.005730384
140	0xbdc3ffa6	-0.095702454
141	0x3d0c20ee	0.03421109
142	0x3cdb7780	0.02679038
143	0x3e0aee95	0.13567574
144	0xbe02e86b	-0.12783973
145	0x3c76e13c	0.0150683485
146	0xbc80805a	-0.015686203
147	0xbdce64cb	-0.100778185
148	0xbd9580b3	-0.07299938
149	0xbda5b3b0	-0.08090913
150	0xbdae0f95	-0.08499066
151	0xbdff516a	-0.124667004
152	0xbd35d540	-0.044392824
153	0xbdf3ccb1	-0.11904276
154	0x3d02ec54	0.03196366
155	0x3e02a3f1	0.12757851
156	0xbc49f7cf	-0.012327149
157	0x3d746fe4	0.05967702
158	0xbda48109	-0.08032424
159	0xbd0a7fc9	-0.03381327
160	0xbe094c84	-0.13408095
161	0x3d93ad82	0.07210828
162	0x3d69b733	0.057059478
163	0xbdf77571	-0.12082947
164	0x3da10b8b	0.0786353
165	0xbd4996c6	-0.049216054
166	0xbd4eea89	-0.05051664
167	0xbdf52925	-0.11970738
168	0x3c9fe712	0.019519363
169	0xbd1ebec0	-0.038756132
170	0x3d8c7d64	0.06859854
171	0xbc747206	-0.014919763
172	0xbd117d79	-0.03552005
173	0x3d8f007c	0.06982514
174	0x3bf743b1	0.0075459112
175	0x3d3dc285	0.046328086
176	0x3c9869a9	0.01860507
177	0x3c55aa07	0.013041026
178	0x3de53251	0.11191238
179	0xbe02b960	-0.12766027
180	0x3ddb926a	0.10721286
181	0xbe019bbd	-0.12657066
182	0xbd1d6202	-0.038423546
183	0x3d347dd3	0.044065308
184	0xbda2150d	-0.07914171
185	0x3de8ffb9	0.113769
186	0x3dae4677	0.08509534
187	0x3cef6e3c	0.029227369
188	0xbd798a45	-0.06092288
189	0xbdb3dca5	-0.08782319
190	0xbdb25a61	-0.08708645
191	0x3dc69062	0.096955076
192	0x3e0786c0	0.13234997
193	0xbb2cdce2	-0.0026376774
194	0xbc4e1e6d	-0.012580496
195	0x3df12126	0.11773901
196	0x3d2281d3	0.03967459
197	0x3e344a84	0.1760655
198	0xbd39699d	-0.045266736
199	0x3e35a30d	0.1773798
200	0x3db97c18	0.09056872
201	0x3dc60682	0.0966921
202	0x3e1e7e4e	0.15477869
203	0x3d6cdaf6	0.057826005
204	0xbd1cdfcc	-0.038299367
205	0x3e0cd57b	0.13753311
206	0x3de11f3e	0.10992287
207	0x3d1c313a	0.038132884
208	0x3d5b9c03	0.05361558
209	0x3d61771b	0.05504523
210	0x3df20a54	0.11818376
211	0xbd0bb7a6	-0.034110688
212	0x3da79398	0.08182448
213	0x3d94b99c	0.07261965
214	0x3e06d1ee	0.1316602
215	0x3d461e69	0.048368845
216	0x3d810612	0.06299986
217	0x3d3a28e4	0.045449153
218	0x3e145006	0.14483652
219	0xbda8009c	-0.08203241
220	0xbdc74d70	-0.09731567
221	0x3d9f69c0	0.07783842
222	0x3e25b0f2	0.1618078
223	0x3cfceb05	0.030873785
224	0x3dee8873	0.116471194
225	0xbdd73945	-0.1050897
226	0x3e1dcdbd	0.15410514
227	0xbc3d15db	-0.011540855
228	0x3ca3d784	0.020000227
229	0xbb1f57a5	-0.0024313715
230	0x3c503fc7	0.012710518
231	0x3e0e9b28	0.13926375
232	0x3d160f03	0.03663541
233	0x3da1b1d3	0.078952454
234	0xbd288295	-0.041140158
235	0x3e0f6faf	0.14007448
236	0x3ded869c	0.1159794
237	0x3dd0d05f	0.10195994
238	0x3c24a4d8	0.010049067
239	0x3d5233c5	0.051318903
240	0x3c5d304b	0.0135002835
241	0xbd1fc60e	-0.03900724
242	0x3c9c3f50	0.019073159
243	0x3cda5f00	0.026656628
244	0x3d45d6f1	0.048300687
245	0xbd86924e	-0.06570874
246	0x3d1c5051	0.038162533
247	0x3d79947e	0.06093263
248	0x3dc6dc95	0.097100414
249	0x3e0ae826	0.1356512
250	0x3d1be744	0.03806235
251	0xbd09abea	-0.033611216
252	0xbc14e221	-0.009087116
253	0x3d8872ef	0.06662547
254	0xbd04feaf	-0.032469448
255	0xbd54e573	-0.051976632

lstm.bias_hh_l0 f4 [256]
0	0x3d0b85f2	0.034063287
1	0x3dad76ba	0.08469911
2	0xbd82fac1	-0.06395484
3	0x3d80a23c	0.06280944
4	0xbd66f61f	-0.056387063
5	0x3dd3397a	0.10313697
6	0xbd8ed0f4	-0.069734484
7	0x3dec9d9a	0.115534976
8	0x3db93a1b	0.09044286
9	0x3e10aee0	0.1412921
10	0xbd444ca1	-0.04792464
11	0xbd8d5276	-0.06900494
12	0x3e39d904	0.18149191
13	0xb9fa4b3c	-0.0004773977
14	0x3d372fc9	0.044723306
15	0xbdbef179	-0.09323401
16	0x3c2913b8	0.010319643
17	0x3df98bfb	0.12184902
18	0xbd02985f	-0.031883594
19	0x3d8ed3a2	0.069739595
20	0xbd467164	-0.04844798
21	0x3dd664c1	0.10468436
22	0xbdad823b	-0.08472105
23	0xbd78489e	-0.06061613
24	0xbd0e43a8	-0.03473249
25	0x3dd389f3	0.10329046
26	0xbd0c8cb3	-0.03431387
27	0xbc1574d1	-0.0091220895
28	0xbda1a25a	-0.07892294
29	0x3ce8a063	0.02839679
30	0x3e29906e	0.16559002
31	0x3dbf679d	0.093459345
32	0x3e02695a	0.12735501
33	0x3db99524	0.090616494
34	0x3dffc72e	0.124891624
35	0x3b4b1d87	0.0030992941
36	0x3e0c66e4	0.13711125
37	0xbd839c56	-0.06426303
38	0x3d6165ab	0.0550286
39	0xbc6db7eb	-0.0145091815
40	0x3b33450b	0.0027354385
41	0xbd6bec5e	-0.057598464
42	0x3c295940	0.01033622
43	0xbcf7b55c	-0.030237846
44	0xbd57aed4	-0.052656963
45	0x3d3faa15	0.046793062
46	0xbdb36a47	-0.08760505
47	0x3c6ed246	0.0145765
48	0x3e1e4c78	0.15458858
49	0x3d83489d	0.06410334
50	0x3d997f4f	0.07494985
51	0x3d787ea6	0.060667656
52	0xbd51b644	-0.051199213
53	0x3d97980a	0.07402046
54	0xbd45134a	-0.0481141
55	0xbd3ba06f	-0.0458073
56	0x3dd9ecc0	0.106408596
57	0x3cb14c27	0.021642758
58	0xbd30eb5c	-0.043193206
59	0x3d364a2e	0.044504337
60	0x3e22dc02	0.15904239
61	0x3e0fcba3	0.14042525
62	0x3d908e64	0.07058409
63	0xbc3db254	-0.011578161
64	0x3de8fa1d	0.1137583
65	0x3c848577	0.016176922
66	0x3de9cd24	0.114160806
67	0x3c9200dc	0.017822675
68	0x3e0ea3af	0.13929628
69	0x3e054df6	0.13018021
70	0x3d493edb	0.04913221
71	0x3d4149e4	0.04718961
72	0x3e450050	0.192384
73	0xbd5242d3	-0.05133326
74	0xbd9857cf	-0.07438623
75	0x3e2924b0	0.16517901
76	0xbcede3f0	-0.029039353
77	0x3da92e44	0.082607776
78	0x3d9e3f64	0.077269346
79	0x3da7d837	0.081955366
80	0x3dbb5513	0.09147086
81	0x3e0717e8	0.13192713
82	0xbad1c0b7	-0.0016002868
83	0xbdc4362b	-0.09580644
84	0x3c708ad8	0.01468154
85	0x3d77de73	0.06051488
86	0x3c420b93	0.01184358
87	0x3e1608da	0.14651814
88	0x3cba7d9f	0.022764979
89	0xbd1a3002	-0.03764344
90	0x3a402018	0.0007329001
91	0xbda73838	-0.0816502
92	0x3cc9fa22	0.024655405
93	0x3e0db6ce	0.13839266
94	0x3e15f2ac	0.14643353
95	0x3b8bb30c	0.0042632874
96	0xbd557197	-0.05211028
97	0xbd926615	-0.07148377
98	0x3d36ba77	0.04461142
99	0x3d9f7dba	0.07787652
100	0xbaefbba2	-0.0018290172
101	0x3e075cf9	0.1321906
102	0x3c9ad0be	0.018898364
103	0x3e0371be	0.12836358
104	0x3ca677ee	0.020320859
105	0x3dc589a4	0.096453935
106	0x3dd38952	0.10328926
107	0x3d2cbc9a	0.042172052
108	0x3d9a3e22	0.07531382
109	0xbd936932	-0.07197799
110	0x3d7a235f	0.06106889
111	0x3e105530	0.14094996
112	0xbc5ea034	-0.013588
113	0x3dd5ac9a	0.10433312
114	0x3cc5e311	0.024156125
115	0x3d2b3505	0.04179861
116	0x3d93a4c3	0.0720916
117	0x3cb0ec40	0.021597028
118	0x3c15031a	0.009094978
119	0x3cf99ef7	0.030471308
120	0x3e0ac60f	0.13552116
121	0x3e04921c	0.12946361
122	0xbd909e1b	-0.07061406
123	0x3dbce522	0.09223391
124	0xbc34ee62	-0.011043163
125	0xbd28f606	-0.04125025
126	0xbd380034	-0.04492207
127	0x3e0d7460	0.13813925
128	0x3ddd1ef0	0.107969165
129	0xbcabd170	-0.020973891
130	0xbd2141bb	-0.039369326
131	0xbddb7a68	-0.107167065
132	0xbdb3f979	-0.087878175
133	0x3b17cb6a	0.0023162016
134	0xbd98bc3a	-0.07457776
135	0xbde25578	-0.11051458
136	0x3db1e441	0.08686114
137	0x3c568d04	0.013095144
138	0x3c7cd0e2	0.015430661
139	0x3d8c0210	0.06836331
140	0x3c99f558	0.018793747
141	0xbdbaefb5	-0.09127752
142	0xbd99f979	-0.07518286
143	0x3d2a339b	0.04155312
144	0xbdcda73b	-0.10041662
145	0xbdc64ada	-0.096822456
146	0x3d1d7ed0	0.038451016
147	0xbd823f3a	-0.06359716
148	0xbdb52d09	-0.088464804
149	0x3bee2265	0.0072672837
150	0xbdef96db	-0.11698695
151	0x3d36cc96	0.044628702
152	0xbd553d4c	-0.05206041
153	0xbe09fe4b	-0.13475911
154	0x3c2ce541	0.010552705
155	0xbdbcd4b3	-0.09220257
156	0x3d861e81	0.06548787
157	0x3dace0c6	0.0844131
158	0x3cfcf08a	0.030876417
159	0x3d9719ac	0.073779434
160	0xbd3f3dcc	-0.046689793
161	0xbdbdfd7e	-0.092768654
162	0xbd9972e2	-0.07492615
163	0x3a20bd98	0.00061317673
164	0xbcf58ace	-0.029973414
165	0xbc5912b1	-0.013249085
166	0xbdd287a3	-0.10279777
167	0xbd2b7dbf	-0.041867968
168	0x3da50769	0.08058054
169	0x3d3b0b50	0.045665085
170	0xbdb9c0d2	-0.09069981
171	0xbda9ba9b	-0.08287545
172	0xbe007ead	-0.12548323
173	0xbc1737ef	-0.009229644
174	0x3d0599df	0.032617446
175	0xbd5f6bbc	-0.054546103
176	0xbd488ba0	-0.04896128
177	0xbd9d10c5	-0.07669214
178	0x3da34e77	0.0797395
179	0xbdc2fe53	-0.09521165
180	0x3da0d1a6	0.07852487
181	0xbda3855a	-0.07984419
182	0xbc7853e5	-0.015156721
183	0x3dfa7749	0.12229783
184	0x3df37e8b	0.118893705
185	0x3db2b1a3	0.08725288
186	0x3c42ea17	0.011896632
187	0x3c5c92b7	0.013462714
188	0x3cdb705d	0.026786977
189	0x3d5e5e17	0.05428895
190	0x3d2965ad	0.04135673
191	0xbac0bd60	-0.0014704876
192	0x3cc0ea4e	0.023549225
193	0x3d21d3f1	0.039508764
194	0x3d287216	0.041124426
195	0xbdcb4470	-0.09925163
196	0x3d19c10b	0.037537616
197	0x3d329f35	0.043608863
198	0x3e1ce7b8	0.15322769
199	0xbcaa8502	-0.020815376
200	0x3dbef446	0.09323935
201	0x3e1c8b70	0.15287566
202	0x3e176369	0.14784016
203	0x3ddaf831	0.1069187
204	0x3dac8ca0	0.084252596
205	0x3dfcc31f	0.12341904
206	0x3dfa1545	0.12211088
207	0x3bb52a15	0.005528698
208	0x3dacab7b	0.08431145
209	0xbc81c11d	-0.015839154
210	0x3e45b99d	0.19309087
211	0x3db6a30d	0.08917818
212	0x3e4b944a	0.19880787
213	0x3d02f265	0.031969447
214	0x3d6ae0c8	0.057343274
215	0x3c81e001	0.015853884
216	0x3cae85d7	0.021304054
217	0xbd98c310	-0.0745908
218	0xbd310f48	-0.043227464
219	0x3d069210	0.03285414
220	0x3e0c2c3d	0.1368875
221	0x3bfa99b1	0.007647716
222	0x3d899af5	0.06719009
223	0x3de6d009	0.11270148
224	0x3e3f10e8	0.18658793
225	0x3d31c2b5	0.043398578
226	0x3d35a398	0.04434547
227	0xbd08c3c6	-0.03338983
228	0x3ba3d8c0	0.005000204
229	0xba582582	-0.0008245335
230	0xbc632af1	-0.0138652185
231	0x3db728c8	0.08943325
232	0xbd5bdd2b	-0.05367772
233	0x3e092bd5	0.13395627
234	0x3dd6499f	0.10463261
235	0xbc29c66a	-0.010362247
236	0x3dec0938	0.11525196
237	0x3cb105b5	0.021609167
238	0x3d1c439a	0.038150407
239	0x3e3400f4	0.17578489
240	0xbd87b238	-0.066257894
241	0x3d21f623	0.039541375
242	0x3d070b8d	0.03297
243	0x3e3bc32f	0.18336175
244	0x3caa2962	0.020771686
245	0xbe00c14f	-0.12573741
246	0x3d74bc26	0.059749745
247	0x3dd49762	0.103804365
248	0x3d8b216f	0.06793486
249	0x3da5f552	0.08103432
250	0x3c9bf912	0.019039664
251	0x3dbfc0f2	0.09362973
252	0xbd3afed6	-0.045653187
253	0x3d9bdc34	0.0761036
254	0x3d8ae6de	0.06782316
255	0xbaebe6d6	-0.0017997872

lstm.weight_ih_l0_reverse f4 [256, 128]
0	0xbd3217b8	-0.04347965
1	0xbd4de449	-0.050266538
2	0xbdc930ad	-0.09823737
3	0xbb49ec04	-0.0030810842
4	0xbd88b543	-0.06675198
5	0x3da880a3	0.082276605
6	0x3e030b00	0.12797165
7	0xbd8f2759	-0.06989927
8	0x3cd41218	0.025887534
9	0xbccf88ba	-0.025333751
10	0x3ddc53be	0.1075816
11	0xbc6ac379	-0.014328831
12	0x3d13ffc1	0.036132578
13	0x3d6f0d34	0.0583622
14	0x3d3968d1	0.045265976
15	0xbdc5c46a	-0.09656604
16	0xbd6eebae	-0.05833023
17	0xbd36c1cf	-0.044618424
18	0x3c1a4a53	0.009417134
19	0x3e0100b4	0.12597924
20	0xbd058ba4	-0.032603875
21	0x3cf3c153	0.02975527
22	0xbd80e6fa	-0.06294055
23	0xbc466e36	-0.012111237
24	0x3cd10add	0.025517875
25	0xbd90adc0	-0.0706439
26	0x3d6fe2eb	0.058566015
27	0xbe061d40	-0.13097095
28	0xbd6b5029	-0.057449494
29	0xbc01d142	-0.007923426
30	0x3d960805	0.07325748
31	0x3d2f976d	0.04286902
32	0x3db57c00	0.08861542
33	0x3da70595	0.081553616
34	0x3a3891b4	0.00070407544
35	0xbdbea33b	-0.093084775
36	0x3e09bb2f	0.13450311
37	0xbe20698b	-0.15665261
38	0xbd9bc79b	-0.07606431
39	0xbc735f78	-0.0148543045
40	0x3d9bf135	0.07614366
41	0x3e068853	0.13137941
42	0x3debf0f4	0.115205675
43	0xbc5188b2	-0.012788938
44	0x3d8de731	0.06928862
45	0xbd95a31b	-0.073065005
46	0xbdc146c7	-0.09437328
47	0xbda1d6ad	-0.07902274
48	0x3e143744	0.14474207
49	0x3d2d93a3	0.042377125
50	0xba3d03b5	-0.000721033
51	0x3e07499b	0.13211672
52	0x3dfcc3ac	0.12342009
53	0x3d977cc6	0.073968455
54	0x3d471667	0.04860535
55	0x3d2a37c6	0.041557096
56	0xbc74825a	-0.014923656
57	0xbd712844	-0.05887629
58	0xba5c497b	-0.00084032834
59	0x3c32e775	0.0109194415
60	0xbd9cc727	-0.07655173
61	0xbd546341	-0.05185247
62	0x3d2cfa62	0.04223097
63	0xbb74f1fd	-0.0037375682
64	0xbd859429	-0.065224
65	0x3c5742d2	0.01313849
66	0xbd6b47b5	-0.057441432
67	0x3db5c04d	0.08874569
68	0x3e145a4a	0.14487568
69	0x3d5167f5	0.05112453
70	0x3e1fcd41	0.15605642
71	0xbd16941d	-0.036762346
72	0xbd67776a	-0.056510366
73	0x3db733e8	0.08945447
74	0x3dc7de50	0.097591996
75	0x3c1f4c1f	0.0097227385
76	0xbe1295dc	-0.1431498
77	0xbc4e97d2	-0.012609439
78	0xbd7ee388	-0.06222871
79	0xbd7d1e3b	-0.06179641
80	0x3b991c9a	0.004672599
81	0x3d8e90a3	0.06961181
82	0x3d28cca4	0.041210786
83	0x3db6cee1	0.08926178
84	0x3ccebcd2	0.02523652
85	0xbd3af102	-0.04564
86	0xbae514fc	-0.0017477567
87	0x3c8c3597	0.017115397
88	0x3d8e9774	0.06962481
89	0xbd0eb5bc	-0.034841284
90	0x3d88cf30	0.06680143
91	0xbd07f3fc	-0.033191666
92	0xbd55eb4e	-0.052226357
93	0x3d2cea40	0.042215586
94	0x3deb6da5	0.114955224
95	0xbe02a5b0	-0.12758517
96	0x3dc1b1c2	0.09457733
97	0x3c5e2dc1	0.013560713
98	0xbcd9c03d	-0.026580924
99	0xbd872ad7	-0.06599968
100	0x3dc6b45d	0.0970237
101	0x3d838993	0.064227246
102	0xbd971301	-0.073766716
103	0xbcfbb7a7	-0.03072722
104	0xbd901408	-0.07035071
105	0x3de0b067	0.10971146
106	0xbcaf7258	-0.021416828
107	0xbd06950c	-0.032856986
108	0x3d1fc9c5	0.03901078
109	0x3c6f6032	0.014610337
110	0xbd8acef3	-0.06777754
111	0x3c8c0b08	0.017095104
112	0x3da2bf77	0.07946675
113	0x3ba07702	0.0048969993
114	0x3d775b90	0.060390055
115	0xbdc88431	-0.097908385
116	0x3d43cccb	0.047802728
117	0x3db912ed	0.09036813
118	0x3ca4aaca	0.02010097
119	0x3d84704b	0.06466731
120	0x3e0857e6	0.1331478
121	0xbc89c163	-0.016815847
122	0x3c60fa18	0.013731502
123	0xbe192907	-0.14957057
124	0x3e1bad27	0.15202771
125	0xbda70ca4	-0.08156708
126	0x3c1b0ece	0.009463979
127	0x3cb02bdf	0.021505294
128	0xbd5d2f2d	-0.05400007
129	0xbda4a7ac	-0.08039793
130	0x3c8bf1b4	0.017083026
131	0x3d99c37c	0.07507989
132	0x3db203d4	0.086921364
133	0xbd6614d5	-0.05617221
134	0x3d9eab06	0.07747464
135	0xbdd42c04	-0.10359958
136	0xbd487243	-0.048937093
137	0x3d84f77f	0.06492519
138	0xbd9cfac1	-0.07665015
139	0x3daa9af0	0.08330333
140	0x3d4b7124	0.049668446
141	0xbc5af8cc	-0.013364982
142	0xbdd16280	-0.102238655
143	0xbd995b85	-0.07488159
144	0x3dae12a8	0.08499652
145	0xbd6d083d	-0.057869185
146	0xbda39165	-0.07986716
147	0xbd8abe8d	-0.06774626
148	0x3ce8034b	0.028321883
149	0x3da3ad07	0.07991987
150	0x3d3b2f59	0.04569945
151	0x3d3361a7	0.0437943
152	0xbd3efb98	-0.046626657
153	0xbd83c48c	-0.06433973
154	0x3d61ac2b	0.055095833
155	0x3c6c38a6	0.014417803
156	0x3cac9775	0.021068314
157	0x3c99849e	0.018739995
158	0xbd50aa73	-0.050943803
159	0x3de2bf69	0.11071665
160	0xbca52786	-0.020160448
161	0x3c863503	0.0163827
162	0x3d860101	0.0654316
163	0x3d8becce	0.06832276
164	0x3e13db9d	0.14439245
165	0xbd476135	-0.04867669
166	0xbd079108	-0.033097297
167	0xbc8bc8fb	-0.017063608
168	0xbb847bff	-0.004043102
169	0xbcc14982	-0.023594622
170	0x3c9c020c	0.019043945
171	0x3dac37bf	0.0840907
172	0xbe0a6920	-0.13516665
173	0x3d12b3e4	0.03581609
174	0xbdf74cbb	-0.12075182
175	0x3db05280	0.086094856
176	0x3e1b69de	0.15177104
177	0xbab40737	-0.001373506
178	0xbd21a95f	-0.039468165
179	0xbde9451c	-0.11390135
180	0xbd685915	-0.05672558
181	0x3cb7f37a	0.022454966
182	0xbd18af86	-0.037276767
183	0x3d9f7ab7	0.07787078
184	0x3cca02b1	0.024659486
185	0x3d27e5c7	0.040990617
186	0xbc1274db	-0.008938993
187	0xbbb28a75	-0.0054486343
188	0x3caf8c69	0.021429257
189	0xbcb2c7bf	-0.021823762
190	0xbcdbc222	-0.026825968
191	0x3c0aa632	0.008462476
192	0xbd8c1fe6	-0.06842022
193	0x3b790b5e	0.003800116
194	0x3dc1774c	0.09446582
195	0x3e029633	0.12752609
196	0xbde74258	-0.11291951
197	0xbdc247bf	-0.09486341
198	0x3d55a8e0	0.052163005
199	0x3da1b933	0.07896652
200	0xbc16ed63	-0.009211871
201	0xbd9ea109	-0.07745559
202	0x3d9c0d42	0.07619716
203	0xbd336764	-0.043799773
204	0xbe0c3aa4	-0.13694245
205	0x3d2ef1e0	0.04271114
206	0x3da7c1cc	0.08191261
207	0xbd245c17	-0.040126886
208	0x3da69102	0.08133127
209	0xbdf8f32e	-0.12155758
210	0xbe0185f9	-0.12648763
211	0x3bab9282	0.005235971
212	0x3e1a3811	0.1506045
213	0x3d9ba2d2	0.07599415
214	0xbd78b9d9	-0.060724113
215	0x3d28c2e0	0.041201472
216	0xbdcfddde	-0.1014974
217	0xbd92f9bf	-0.071765415
218	0xbc9dedf1	-0.019278498
219	0x3e02eead	0.1278636
220	0xbdd582b8	-0.10425323
221	0xbdacfa08	-0.08446127
222	0xbd2af73d	-0.04173969
223	0x3cd9f18f	0.026604442
224	0x39406d75	0.00018351323
225	0x3a7a03bb	0.0009537299
226	0x3dcda41e	0.100410685
227	0xbd08c15a	-0.03338752
228	0xbc236feb	-0.009975414
229	0xbca91169	-0.020638185
230	0xbde99a2c	-0.11406359
231	0x3dce166c	0.100628704
232	0x3d91966d	0.071087696
233	0x3d0fdb00	0.035120964
234	0x3d1eeabd	0.038798083
235	0xbcfedf3b	-0.031112304
236	0x3d1b373a	0.037894465
237	0x3c991e1f	0.01869112
238	0xbda0aa94	-0.07845035
239	0xbd965abc	-0.07341525
240	0x3d48dd48	0.049039155
241	0xbd7a3b16	-0.061091505
242	0x3ddc53ce	0.10758172
243	0x3de04543	0.109507106
244	0xbdcb07b1	-0.099135764
245	0x3cc4a2db	0.024003437
246	0x3cb3f4d9	0.021967338
247	0xbda5a48b	-0.08088025
248	0x3dba1211	0.09085477
249	0xbe0e9251	-0.13923003
250	0x3d451719	0.04811773
251	0xbddec782	-0.10877897
252	0xbcdb6c0b	-0.026784917
253	0xbd266845	-0.040626783
254	0x3e0408e3	0.12894015
255	0x3dc4fba8	0.09618312

lstm.weight_hh_l0_reverse f4 [256, 64]
0	0xbd2bf642	-0.041982897
1	0xbd980899	-0.07423515
2	0xbd4f4687	-0.05060437
3	0x3d0f0db8	0.034925193
4	0x3cb456a4	0.02201397
5	0x3d14f406	0.03636553
6	0x3c0adf1a	0.008476043
7	0xbd68078d	-0.056647826
8	0x3da463d5	0.08026854
9	0x3dba666f	0.09101569
10	0x3c9f5358	0.019448921
11	0x3dd07a5d	0.10179589
12	0xbc860f85	-0.016364822
13	0x3e017a61	0.1264434
14	0x3c4b78dc	0.012418952
15	0x3d0aa7d8	0.033851475
16	0x3da789c7	0.08180576
17	0x3dbcf8ba	0.09227128
18	0x3d830c11	0.06398786
19	0x3d29de53	0.04147179
20	0xbd2a45e3	-0.041570555
21	0xbc2300e2	-0.009948941
22	0x3dfe246b	0.1240929
23	0x3db09fd3	0.08624234
24	0xbdcd1b5e	-0.100149855
25	0x3de6f031	0.112762816
26	0xbdd20d40	-0.102564335
27	0x3d939934	0.072069556
28	0x3cf5e2c1	0.030015351
29	0x3dbbcedb	0.09170314
30	0x3de3bae9	0.11119635
31	0xbc944206	-0.018097889
32	0xbd8e763b	-0.069561444
33	0xbda28271	-0.07935036
34	0xbe028a0c	-0.12747973
35	0xbd7f4c38	-0.062328547
36	0x3d29a953	0.041421246
37	0xbd8295db	-0.06376239
38	0x3d9cc605	0.07654957
39	0xbdd30650	-0.103039384
40	0x3c24f69c	0.010068562
41	0xbdef4897	-0.11683767
42	0xbdc9d689	-0.098553725
43	0xbd57c3c1	-0.05267692
44	0xbda9d8f0	-0.08293331
45	0x3dd59ac5	0.104299106
46	0x3dd4f84a	0.1039892
47	0xbdc65e60	-0.09685969
48	0xbdea0c2d	-0.114281036
49	0x3d63dfac	0.055633232
50	0xbda4076a	-0.080092266
51	0x3bef6739	0.0073060063
52	0x3def9a6e	0.11699377
53	0xbc61e731	-0.0137880305
54	0x3d10c69e	0.035345666
55	0x3cb693eb	0.02228733
56	0xbd2ae0ea	-0.0417184
57	0x3c447f3a	0.011993224
58	0xbdd03d4b	-0.10167941
59	0xbd7490d9	-0.05970845
60	0x3d9c71a3	0.07638862
61	0xbb13d3a3	-0.0022556565
62	0x3e006831	0.12539746
63	0xbdbf9a7e	-0.09355639
64	0x3c491c40	0.012274802
65	0xbdfdd6af	-0.12394463
66	0xbd47b497	-0.04875621
67	0xbd17adc8	-0.037030965
68	0x3db4a167	0.088198476
69	0xbdd86982	-0.10566999
70	0x3da81b65	0.0820835
71	0xbd4e06c8	-0.050299436
72	0x3d98983e	0.07450913
73	0xbd8448ae	-0.06459175
74	0x3d1b922f	0.03798121
75	0x3dd68160	0.10473895
76	0x3da6acf7	0.08138459
77	0x3d0c714e	0.034287743
78	0xba9e5cda	-0.0012082115
79	0xbc189c51	-0.0093146125
80	0x3c87c8d8	0.016575262
81	0x3d998a23	0.074970506
82	0x3d3ff27f	0.04686212
83	0x3c9d65a7	0.01921351
84	0x3e07bda6	0.13255939
85	0xbb06bc8c	-0.002055916
86	0x3d1b6f5f	0.03794801
87	0xbcdd0670	-0.026980609
88	0x3bc1311c	0.005895747
89	0xbd62dcfc	-0.05538653
90	0xbd1da5df	-0.038488265
91	0xbdbd502a	-0.09243806
92	0x3cdafb3b	0.026731124
93	0x3c814f2c	0.015784822
94	0x3b2da759	0.0026497452
95	0x3cf53960	0.029934585
96	0x3d004fe8	0.031326205
97	0x3d685e52	0.056730576
98	0xbd9f9bd7	-0.07793396
99	0x3de6ee5e	0.11275934
100	0xbd75b7a0	-0.05998957
101	0xbdd224ca	-0.10260923
102	0xbd9a4e06	-0.07534413
103	0xbd6e4476	-0.05817076
104	0xbcd74f90	-0.026283056
105	0xbd7ed180	-0.062211514
106	0x3d6e1aa1	0.058130864
107	0x3d274dda	0.04084573
108	0xbd92be93	-0.071652554
109	0x3db35af2	0.08757581
110	0x3d347af2	0.044062562
111	0x3de8a9c5	0.11360506
112	0xbde95cc7	-0.11394649
113	0x3d8aa6bc	0.06770083
114	0xbc762da6	-0.015025532
115	0x3d5112d6	0.051043354
116	0xbd4e9101	-0.050431255
117	0xbd04f2a2	-0.032457955
118	0xbaad5854	-0.0013225176
119	0x3d351ac6	0.044214986
120	0xbd14897c	-0.036263928
121	0x3df019fe	0.117237076
122	0xbcbe32c5	-0.023217568
123	0xbd06c912	-0.0329066
124	0xbdf43e3e	-0.11925934
125	0x3dc0c9cd	0.094134904
126	0x3df421d5	0.119205154
127	0xbdc88d17	-0.09792536
128	0x3d3dc843	0.046333563
129	0xbde289ca	-0.110614374
130	0x3dd848e2	0.10560776
131	0xbdaccfa8	-0.08438045
132	0x3a76a654	0.000940894
133	0xbc11d38c	-0.008900534
134	0x3c684d3c	0.01417857
135	0xbd8efe24	-0.06982067
136	0xbdddb05b	-0.10824653
137	0xbde0c9d7	-0.10975998
138	0x3ce1f202	0.027581219
139	0x3e1e31e0	0.15448713
140	0xbd9b9d78	-0.07598394
141	0x3db6dd7b	0.08928963
142	0x3dbb4173	0.09143343
143	0x3d812bec	0.063072056
144	0x3d5f05ff	0.054449078
145	0x3ddc63ec	0.10761246
146	0xbd1e3581	-0.038625244
147	0x3cf5121e	0.029915866
148	0x3e139cf8	0.14415348
149	0x3d05ebf6	0.032695733
150	0xbcbd4a7c	-0.023106806
151	0x3d223b81	0.03960753
152	0xbe077659	-0.1322874
153	0xba7e6520	-0.00097044
154	0xbde1f076	-0.110321924
155	0x3d2c615a	0.04208503
156	0x3cea9d4e	0.028639462
157	0x3d8d7f13	0.06909003
158	0x3d0ff808	0.03514865
159	0x3d55af85	0.05216934
160	0xbd91dd47	-0.071222834
161	0x3c98f21b	0.018670132
162	0xbd80f22a	-0.06296189
163	0x3d7c492e	0.061593227
164	0xbdb9b184	-0.090670615
165	0x3db56191	0.088565
166	0xbdb8255c	-0.08991501
167	0xbe00e536	-0.12587437
168	0x3d573cb5	0.05254813
169	0xbd789538	-0.06068918
170	0xbdf358df	-0.11882185
171	0x3dce42b3	0.100713156
172	0x3e1c68d8	0.1527437
173	0xbd26ce9c	-0.04072438
174	0x3be0e099	0.0068627116
175	0x3c1f87d3	0.009736973
176	0xbc328ec4	-0.010898296
177	0x3e16f40e	0.14741537
178	0x3dddb919	0.1082632
179	0x3d036b35	0.032084662
180	0x3d3364dd	0.043797363
181	0x3df24ce0	0.11831069
182	0x3d17c581	0.03705359
183	0xbbc363b5	-0.0059628137
184	0x3d8fddf8	0.07024759
185	0xbb8e3e53	-0.0043409257
186	0xbc434537	-0.011918358
187	0x3d3637f1	0.044486944
188	0x3d511bc3	0.051051866
189	0x3da12804	0.078689605
190	0x3d3b66c7	0.045752313
191	0xbca99ec3	-0.020705586
192	0x3d99e730	0.07514799
193	0x3db154f6	0.08658783
194	0x3bf41f58	0.0074500255
195	0x3d8bed78	0.06832403
196	0xbc62123e	-0.013798295
197	0xbdcb7050	-0.09933531
198	0xbd38713e	-0.04502987
199	0xbc2bc63c	-0.0104842745
200	0xbd6c0832	-0.057625003
201	0x3e25cb98	0.16190946
202	0x3d364adb	0.04450498
203	0x3cc49f75	0.024001816
204	0x3c874651	0.016513022
205	0xbd6ca76f	-0.057776865
206	0x3c638d85	0.013888721
207	0x3c96ea23	0.018422192
208	0xbcb3e615	-0.021960298
209	0x3d5bf562	0.053700812
210	0x3dddc74f	0.10829031
211	0xbe1a7527	-0.15083753
212	0x3d009f87	0.031402137
213	0x3dbbb1be	0.09164761
214	0x3c751858	0.014959417
215	0x3be19b06	0.0068849353
216	0xbd3a971d	-0.04555427
217	0xbc1d1c58	-0.009589277
218	0x3e04a4f6	0.12953553
219	0x3d8b4fab	0.06802305
220	0xbd4edd02	-0.05050374
221	0xbdc02a85	-0.0938311
222	0x3d010205	0.031496067
223	0x3d83394c	0.06407413
224	0xbd7a6c6b	-0.06113855
225	0x3d1dd9a9	0.038537655
226	0x3e1fc56d	0.15602656
227	0xbd84f046	-0.06491141
228	0x3b21845b	0.002464554
229	0x3dd5148c	0.1040431
230	0x3d7b6709	0.06137756
231	0xbcc93765	-0.024562547
232	0x3d8d800d	0.069091894
233	0x3e1a521c	0.15070385
234	0xbb55c314	-0.0032617496
235	0xbd380a28	-0.04493156
236	0x3ca665e2	0.020312253
237	0x3db11b10	0.0864774
238	0xbdd93397	-0.10605543
239	0xbd84a626	-0.06477003
240	0xbde032a1	-0.10947157
241	0x3cb93650	0.022608906
242	0x3cbddca3	0.023176497
243	0x3d85f3b9	0.06540627
244	0xbcb15f84	-0.02165199
245	0xbe0c4002	-0.13696292
246	0x3da75518	0.08170527
247	0xbe1b3550	-0.15157056
248	0x3e0cf509	0.13765348
249	0x3e1a7d13	0.15086775
250	0x3cb06745	0.021533618
251	0xbdc01195	-0.093783535
252	0xbe25c2ed	-0.1618764
253	0x3cafea72	0.021474097
254	0xbd748bb3	-0.05970354
255	0xbdce0e89	-0.10061366
