0-宋学林/week2/13+徐浩+河北/model.pth (torch, 2015 bytes, 3 tensors)

linear1.weight f4 [10, 10]
000000 a5 7f 8c 3f 14 ef 82 bd 86 bd c6 bc 7f 51 d8 3e
       1.0976454 -0.06393257 -0.024260294 0.42249677
000010 01 f1 7b 3f ac ea f7 3d 80 a6 88 3e d7 e1 53 3e
       0.9841462 0.12105307 0.2668953 0.2069162
000020 19 45 38 bf 9b bb f9 bc 2e 7d 99 3f f8 b2 4a 3e
       -0.71980435 -0.030484965 1.1991327 0.19794834
000030 fd 72 59 3e 5c 5c 4c bc 5f 64 af 3f ec 44 6f 3e
       0.21235271 -0.012473192 1.3702506 0.23366135
000040 96 2e b9 bd 04 98 95 bc a0 d5 89 bf 4a a7 98 bb
       -0.09042089 -0.018260963 -1.0768318 -0.0046586143
000050 a3 ee 2e be 51 6d d6 bd eb 90 11 be 0b 2a 24 bb
       -0.1708322 -0.10470069 -0.14215438 -0.0025049474
000060 b1 1d 3a 3e be b8 67 bd e7 ee 26 3e 73 e5 b5 bc
       0.18175389 -0.05657267 0.16302072 -0.022204136
000070 9b e2 f4 3d 9c 35 7e bd 22 93 4d be 19 86 87 be
       0.11957284 -0.062062845 -0.20075658 -0.26469496
000080 15 00 29 3e 1e 43 92 be f8 88 5e be 84 ac 5c be
       0.16503938 -0.2856683 -0.21731937 -0.21550184
000090 53 6e 8a bd 09 1c 26 3e 6d 26 b6 bc e7 14 93 3e
       -0.06759324 0.16221632 -0.02223512 0.28726885
0000a0 51 4d 34 be 1b b6 4e 3d f0 7a 67 be 15 44 a2 be
       -0.17607619 0.050466638 -0.2260549 -0.31692567
0000b0 f2 7c 94 be be 5d a0 be c7 98 6b 3e 89 4b 10 be
       -0.29001576 -0.3132152 0.23007499 -0.14091314
0000c0 24 82 ec 3d 73 3c 2f be b3 6d a5 3f c2 94 58 3d
       0.1154826 -0.17112903 1.2924103 0.05287624
0000d0 2c 58 c6 3d 36 cd 9e 3d 4a d8 ad 3f 77 31 bd 3c
       0.09684786 0.07753985 1.3581631 0.023094876
0000e0 0e 05 9e 3d de d2 81 3c a0 20 a5 bf 0d 28 c6 3d
       0.07715808 0.01584762 -1.2900581 0.09675608
0000f0 4e c8 8a bd d4 6d de bd 00 67 8c bd 68 cc 25 3e
       -0.06776486 -0.10860792 -0.06855583 0.16191256
000100 18 ea 02 3e 65 98 b1 be bc 9a bf 3d 4c 71 1e be
       0.12784612 -0.3468658 0.09355685 -0.15472907
000110 37 d8 f5 3d 85 39 4f 3e a0 9a 1c 3e 39 13 a2 bd
       0.1200413 0.20236786 0.1529336 -0.07913823
000120 1f 88 5c be af 91 97 be 5a 39 c7 bb dd cb 31 3d
       -0.21536301 -0.29603335 -0.006079835 0.04340731
000130 47 18 9a 3d 07 e9 5d be e1 a7 de bd 2f 09 95 3d
       0.07524162 -0.21670924 -0.10871864 0.07277142
000140 96 42 97 bf d8 88 7e 3e 4a a9 22 3e 55 07 d5 3e
       -1.1817195 0.24856889 0.15884891 0.41607156
000150 00 2f 86 bf a5 2e 71 3e 6b 5e 59 3e 74 7d a2 3e
       -1.0483093 0.2355295 0.21227424 0.31736338
000160 69 81 af 3f 53 c3 96 3e be ce 81 be 48 cf 03 bd
       1.3711368 0.29445896 -0.25353044 -0.0321801
000170 fa 36 80 be 2a 5c df bd 30 91 bb bd cf 25 86 3e
       -0.25041944 -0.10906251 -0.09158552 0.2620072
000180 45 05 96 be 88 f5 5f bd ea 7f 8a bd 9a 22 6c be
       -0.29300895 -0.054677516 -0.06762679 -0.23060074

linear1.bias f4 [10]
000000 e5 ef d3 3d b0 cb 06 3e 2b 6f a0 be 25 50 a8 be
       0.103484906 0.13163638 -0.31334814 -0.32873645
000010 66 a9 a6 bd 73 d9 8f 3e 27 d2 68 be b0 ca 20 bd
       -0.08137779 0.28095588 -0.22736417 -0.039255798
000020 36 ba 06 3f f6 6b e3 bd
       0.52627885 -0.11104576

linear2.weight f4 [1, 10]
000000 23 62 42 3f a8 15 5d 3f 69 96 8a be be 84 3a 3e
       0.75930995 0.8636117 -0.2706788 0.182147
000010 10 80 8c 3e 85 5e 14 40 39 60 80 bd 7d 26 28 be
       0.27441454 2.318269 -0.06268353 -0.16420932
000020 15 5a 9f bf bc 68 8e bd
       -1.2449366 -0.0695357
